…
f.keras.optimizers.SGD(learning_rate=lr_schedule, momentum=0.8),\n","              metrics=['mae'])\n","model.summary()"],"metadata":{"id":"pG7cPVuEblsE","outputId":"c85aaacb-7a16-4f7f-fe1e-e26ad25a13ac","colab":{"base_uri":"https://localhost:8080/"}},"execution_count":null,"outputs":[{"output_type":"stream","name":"stdout","text":["Model: \"sequential\"\n","_________________________________________________________________\n"," Layer (type)                Output Shape              Param #   \n","=================================================================\n"," conv1d (Conv1D)             (None, 15, 64)            384       \n","                                                                 \n"," max_pooling1d (MaxPooling1D  (None, 14, 64)           0         \n"," )                                                               \n","                                                                 \n"," conv1d_1 (Conv1D)           (None, 14, 32)            6176      \n","                                                                 \n"," max_pooling1d_1 (MaxPooling  (None, 13, 32)           0         \n"," 1D)                                                             \n","                                                                 \n"," lstm (LSTM)                 (None, 13, 128)           82432     \n","                                                                 \n"," lstm_1 (LSTM)               (None, 13, 128)           131584    \n","                                                                 \n"," flatten (Flatten)           (None, 1664)              0         \n","                                                                 \n"," dense (Dense)               (None, 64)                106560    \n","                                                                 \n"," dropout (Dropout)           (None, 64)                0         \n","                                                                 \n"," dense_1 (Dense)             (None, 16)                1040      \n","                                                                 \n"," dropout_1 (Dropout)         (None, 16)                0         \n","                                                                 \n"," dense_2 (Dense)             (None, 1)                 17        \n","                                                                 \n","=================================================================\n","Total params: 328,193\n","Trainable params: 328,193\n","Non-trainable params: 0\n","_________________________________________________________________\n"]}]},{"cell_type":"code","source":["log_dir = \"logs\\\\\" + datetime.datetime.now().strftime(\
…
